diabetes_model.pth (torch, 6441 bytes, 5 tensors)

fc1.weight f4 [32, 8]
0.09299959 -0.15382291 -0.012725511 -0.009310712 0.05013321 -0.25907686 -0.42779905 -0.44474044
0.089676656 0.03906305 0.117636085 -0.010115778 0.36566052 -0.30437112 -0.6276753 -0.18180685
0.064493954 -0.15230666 0.12294012 -0.27267316 -0.23668899 -0.33782333 0.022017926 -0.33033335
0.012493273 -0.07070174 -0.07757378 -0.15285681 -1.3569782 0.063370295 -0.24261132 -0.057262514
0.0055061025 -0.05384185 0.005015416 -0.00062178116 -0.0026965667 -0.14935295 1.0753032 -0.06664305
0.32326686 -0.18192613 0.0009951491 -0.24623251 0.019609237 -0.1193416 -0.3118262 -0.25299773
0.23230293 0.46915075 0.19463061 0.09551829 0.119292654 0.5637703 0.47561488 0.7608303
-0.16103676 0.3444678 0.09970591 0.249997 0.20935825 -0.8514353 -0.0042175953 -0.08809214
0.030593246 -0.26352704 -0.023895442 -0.2143664 -0.02578929 -0.25711626 -0.14394046 0.27795133
-0.022244947 -0.029580737 0.003936984 0.010927599 -0.013747246 0.04958635 0.16841246 -1.2830833
-0.058968052 0.25221807 -0.108306274 0.010742072 -0.106544994 0.06664197 -0.3642349 -0.42109126
-0.18571274 -0.2791728 -0.056832623 -0.27363795 -0.10819387 -0.6384944 -0.08532492 0.024672905
0.07756403 -0.2776722 -0.19254954 -0.030590894 0.099603854 -0.7644584 -0.27697238 -0.15397465
-0.0054597654 0.45405272 -0.22412878 0.26163808 0.22144055 0.7071935 0.4192547 0.6263808
-0.06589704 -0.0051111584 0.09877151 0.005826302 -0.05945111 -0.22490782 -0.43638852 -0.41201675
0.1199824 -0.38070273 -0.2088884 0.19792035 0.04352126 0.057837468 -0.27674252 -0.12621015
-0.036378976 0.30219546 0.20279159 -0.14720504 -0.12951706 0.16195594 0.5616426 0.81594545
-0.3146771 -0.065011874 0.27074566 -0.12498695 0.0639509 -0.13092838 -0.15702483 -0.13936464
-0.23188342 0.04282457 0.00635804 -0.28356647 0.25727084 -0.40737164 -0.36743557 -0.3040345
-0.05809703 -0.57851607 -0.22356561 -0.45508236 -0.00590987 -0.2182407 -0.087290324 0.10402448
0.23446152 0.4538627 0.06490921 -0.05526987 -1.1976511 -0.45205078 -0.096410014 -0.119475126
-0.12295448 0.28159046 -0.15038136 -0.20850575 0.2290973 0.39664587 0.48084715 0.22895983
0.11510919 0.49043974 0.11896937 0.39473936 -0.49205697 -0.7103874 -0.21625078 -0.1273918
-0.036732875 0.38361114 0.2740729 0.08395412 0.11964678 -0.4520007 -0.3489143 -0.21847284
-0.058053337 -0.15733941 0.0055558304 0.013425644 -0.02859675 -0.49998355 0.051317587 1.326868
0.27313247 0.30667186 0.33732617 0.16527364 0.16248405 0.4845716 0.51696503 0.60267633
-0.17262417 -0.24492007 0.12091939 0.02387647 -0.0329767 0.8575215 -0.21232992 -0.10340051
-0.19713058 -0.024956595 -0.19616981 -0.29705232 -0.31506297 -0.6028267 -0.23721112 -0.10486403
0.023539215 0.05963964 -0.006653035 0.011062563 -0.008719756 0.040803947 0.005194803 -1.8204192
0.026085166 -0.03380496 -0.0052427826 0.11024669 0.5995563 -0.2544564 -0.14979073 -0.23913074
-0.01466766 0.21221754 -0.22389345 -0.3130664 -0.24767303 0.1836184 -0.33327413 -0.3402516
-0.13797097 -0.20162292 -0.063031726 -0.21723267 -0.22904165 -0.3291883 -0.29765388 -0.14516224
00000000: 9276 be3d c183 1dbe a97e 50bc f58b 18bc
00000010: 7b58 4d3d b9a5 84be 7a08 dbbe 05b5 e3be
00000020: 65a8 b73d 9400 203d 30eb f03d a6bc 25bc
00000030: db37 bb3e 88d6 9bbe 54af 20bf 932b 3abe
00000040: 6815 843d 47f6 1bbe 08c8 fb3d d19b 8bbe
00000050: 995e 72be 2ef7 acbe f05e b43c 7421 a9be
00000060: 96b0 4c3c 13cc 90bd 01df 9ebd 7f86 1cbe
00000070: 76b1 adbf 49c8 813d 1a6f 78be 198c 6abd
00000080: 896c b43b 4689 5cbd 5c58 a43b 07ff 22ba
00000090: e2b8 30bb fbef 18be 89a3 893f 277c 88bd
000000a0: 3c83 a53e d84a 3abe aa6f 823a 6024 7cbe
000000b0: 8da3 a03c 5e69 f4bd afa7 9fbe eb88 81be
000000c0: d2e0 6d3e 8734 f03e 3f4d 473e 189f c33d
000000d0: b54f f43d 4053 103f cb83 f33e c6c5 423f
000000e0: d2e6 24be 155e b03e 9d32 cc3d 37ff 7f3e
000000f0: 0262 563e aaf7 59bf c133 8abb a769 b4bd
00000100: b09e fa3c 04ed 86be 60c0 c3bc de82 5bbe
00000110: 1044 d3bc bea4 83be 2165 13be a34f 8e3e
00000120: 093b b6bc 4d53 f2bc d101 813b ac09 333c
00000130: 213c 61bc 0e1b 4b3d 5174 2c3e 133c a4bf
00000140: 7c88 71bd ba22 813e aecf ddbd 84ff 2f3c
00000150: 4334 dabd 967b 883d ff7c babe 4699 d7be
00000160: 7b2b 3ebe bdef 8ebe 53c9 68bd 461a 8cbe
00000170: bf94 ddbd 5e74 23bf d5be aebd d51e ca3c
00000180: e4d9 9e3d 0d2b 8ebe b52b 45be c199 fabc
00000190: 1bfd cb3d 8cb3 43bf 53cf 8dbe 88ab 1dbe
000001a0: d5e7 b2bb 9979 e83e 0482 65be 6df5 853e
000001b0: 50c1 623e a20a 353f 8da8 d63e 7e5a 203f
000001c0: 07f5 86bd 817b a7bb b848 ca3d 90ea be3b
000001d0: 0283 73bd 3c4e 66be 516e dfbe dcf3 d2be
000001e0: 55b9 f53d 78eb c2be d7e6 55be a2ab 4a3e
000001f0: 5943 323d fbe6 6c3d 32b1 8dbe 3c3d 01be
00000200: 1f02 15bd 5db9 9a3e 99a8 4f3e ebbc 16be
00000210: 1fa0 04be c7d7 253e cfc7 0f3f cde1 503f
00000220: 5b1d a1be f224 85bd 2d9f 8a3e 28f9 ffbd
00000230: b1f8 823d 1712 06be 1ecb 20be 9bb5 0ebe
00000240: d972 6dbe d168 2f3d 1b57 d03b a02f 91be
00000250: 01b9 833e 0493 d0be 8420 bcbe 69aa 9bbe
00000260: 27f7 6dbd a119 14bf 62ee 64be 8e00 e9be
00000270: 95a7 c1bb 7d7a 5fbe 45c5 b2bd c90a d53d
00000280: ae16 703e b160 e83e 1fef 843d a962 62bd
00000290: a24c 99bf 3373 e7be 9d72 c5bd 60af f4bd
000002a0: 8fcf fbbd a02c 903e 92fd 19be 8882 55be
000002b0: 7c98 6a3e 2b15 cb3e 9931 f63e 7274 6a3e
000002c0: 5ebe eb3d eb1a fb3e 37a6 f33d 471b ca3e
000002d0: e4ee fbbe f3db 35bf d870 5dbe ff72 02be
000002e0: 3675 16bd ae68 c43e 4853 8c3e 23f0 ab3d
000002f0: 5f09 f53d a36c e7be e5a4 b2be 58b7 5fbe
00000300: 56c9 6dbd 951d 21be af0d b63b 3bf7 5b3c
00000310: bb43 eabc d8fd ffbe 6432 523d d0d6 a93f
00000320: 05d8 8b3e 1804 9d3e 04b6 ac3e 7e3d 293e
00000330: 3862 263e c519 f83e d257 043f ff48 1a3f
00000340: 64c4 30be 54cc 7abe 96a4 f73d 9698 c33c
00000350: 9412 07bd 8786 5b3f 046d 59be a6c3 d3bd
00000360: 99dc 49be c671 ccbc bde0 48be 3e17 98be
00000370: ef4f a1be da52 1abf 79e7 72be f4c2 d6bd
00000380: 50d5 c03c b248 743d b401 dabb c13f 353c
00000390: 4fdd 0ebc 0a22 273d 2a39 aa3b 7f03 e9bf
000003a0: 8fb0 d53c 1277 0abd a6cb abbb 04c9 e13d
000003b0: 867c 193f 1c48 82be be62 19be b0de 74be
000003c0: a050 70bc 8e4f 593e 5344 65be 3d4a a0be
000003d0: 009e 7dbe 7606 3c3e e8a2 aabe 7535 aebe
000003e0: 4348 0dbe 3d76 4ebe c716 81bd 3e72 5ebe
000003f0: e589 6abe 5e8b a8be 1766 98be 69a5 14be

fc1.bias f4 [32]
0.8352702 -0.09701935 -0.24773926 0.42752174 -0.5125365 0.56193006 -0.35627747 -0.096626304
-0.3100599 0.5941053 0.6010779 0.6180625 0.14321463 -0.06230116 0.7622626 0.625176
0.11641959 -0.23817177 0.6035458 0.50551397 -0.21930903 -0.2526038 -0.024553308 0.44740078
-0.48806688 -0.2985035 -0.043719713 0.21651968 0.24759383 0.05012955 -0.26287803 0.46378812
00000000: 45d4 553f 15b2 c6bd 5caf 7dbe 21e4 da3e
00000010: 9835 03bf a6da 0f3f 006a b6be 03e4 c5bd
00000020: 2cc0 9ebe 4917 183f 3ee0 193f 5839 1e3f
00000030: dba6 123e 802f 7fbd a423 433f 890b 203f
00000040: 656d ee3d 4de3 73be fa81 1a3f 5d69 013f
00000050: 8c92 60be 4955 81be 0524 c9bc b711 e53e
00000060: e7e3 f9be 73d5 98be 7113 33bd 56b7 5d3e
00000070: 3d89 7d3e a554 4d3d f397 86be a375 ed3e

fc2.weight f4 [16, 32]
-0.06141965 0.10747568 -0.08398668 -0.076268956 -0.14578125 -0.093877636 -0.16131674 0.042433724
-0.10091706 -0.0013929754 0.081851855 0.15801515 -0.09605153 -0.010178089 -0.026080072 -0.07818645
-0.062020898 0.07022248 -0.09382773 -0.0011904389 -0.03144878 0.04849811 -0.118182585 0.030083
0.15900342 0.1051033 -0.16508865 -0.08455943 -0.12832534 -0.12070219 -0.031399697 -0.10730324
0.3894016 0.5587986 -0.14250386 0.20553347 -1.724095 0.52495855 -0.44539157 0.22833459
-0.052235477 -1.1585352 0.45090228 0.28745738 0.13563567 -0.030564094 0.26727933 0.35316983
0.2026954 -0.1648125 0.26810405 0.76598173 0.24554306 0.18625967 0.28214827 0.28485295
-1.9298148 -0.1448033 0.25488138 0.11598723 6.3773804 0.09308126 -0.007814065 0.11147917
-0.15274784 -0.06903501 -0.059068114 -0.16335398 0.11126362 -0.12431442 -0.042622916 -0.09932328
0.05200632 -0.1737402 -0.068737045 -0.05336715 0.11534135 -0.03230966 0.14235522 -0.031892642
0.0816447 0.08356491 -0.058408078 -0.077663936 0.10193549 -0.11384249 0.1284672 0.08444386
0.020520363 -0.14750732 -0.013698657 0.06996569 -0.023203121 0.1466965 0.016518757 -0.062393665
0.58973074 0.49564192 -0.15457094 0.3382745 -1.7728088 0.5140695 -0.38550368 0.09063898
0.008803248 -1.2293364 0.48794916 0.35213313 0.0650604 0.12480537 0.54387426 0.3255984
0.038408943 -0.026789382 0.18564051 0.84009874 0.35648227 0.10829642 0.13039549 0.34811604
-2.08709 -0.37548587 0.15824197 0.00014519157 6.3528967 0.20977221 0.12058942 -0.0056492686
0.72466135 0.414234 -0.08894679 0.51047975 -1.884779 0.4695482 -0.3622856 0.21282583
0.14831911 -1.1339766 0.426746 0.5434574 -0.08088839 -0.06422183 0.626699 0.16438435
0.17921066 -0.11292597 0.22594298 0.6625847 0.25132605 0.11394984 0.23508985 0.36715648
-1.9239596 -0.26809654 0.3438839 0.18676925 6.356719 0.3912586 0.041961655 0.09799157
0.1340879 -0.16831107 0.07744746 0.08730233 -0.06816174 -0.041520484 0.011351145 0.14786285
0.051777318 -0.12697016 -0.19580755 0.10012154 -0.04877193 -0.18068154 -0.039675403 -0.015976125
-0.06759603 -0.047010556 0.073847145 -0.11637718 -0.116186045 0.027874535 0.021729963 -0.15780234
-0.17731611 0.05531392 0.04139849 -0.16579075 0.074693896 0.036728904 0.07645421 -0.06421088
-0.5292503 -0.32699868 -0.005095616 -0.24551876 2.7374501 -0.2208362 0.8369614 0.038424682
-0.11753224 1.5615401 -0.19649816 -0.36681533 0.26935565 0.5944923 -0.54152817 -0.17500187
0.57630783 0.061881237 -0.037762538 -0.4679655 -0.05499357 0.43928027 0.06923124 -0.19054319
3.020879 0.8106035 -0.16694528 0.19844238 -5.9350915 -0.028624134 -0.10645545 0.29911608
-0.048703954 0.039997533 0.080531254 -0.108335294 -0.13465694 0.04590875 0.03244011 -0.12677915
0.058253244 -0.17288573 0.07502462 0.10749577 0.0778317 -0.14260122 -0.11710826 -0.0037338585
0.044129103 -0.1520586 -0.14299086 -0.12878768 -0.16237277 -0.14749897 0.091539875 0.025808603
-0.16886023 -0.0033929646 0.03290251 -0.00549902 -0.122278646 0.11856015 -0.16239958 0.16150673
00000000: 2c93 7bbd 361c dc3d 3501 acbd e632 9cbd
00000010: ae47 15be eb42 c0bd 3730 25be fcce 2d3d
00000020: 9bad cebd 8094 b6ba f2a1 a73d b9ce 213e
00000030: aab6 c4bd 00c2 26bc e0a5 d5bc 3820 a0bd
00000040: a009 7ebd ced0 8f3d c128 c0bd 8008 9cba
00000050: 70d0 00bd f4a5 463d b609 f2bd a070 f63c
00000060: cbd1 223e 6640 d73d 000d 29be 7f2d adbd
00000070: b867 03be b632 f7bd f89c 00bd cdc1 dbbd
00000080: a65f c73e 6d0d 0f3f 88ec 11be 5e77 523e
00000090: 25af dcbf af63 063f 5d0a e4be 8bd0 693e
000000a0: def4 55bd e24a 94bf aadc e63e 9d2d 933e
000000b0: 14e4 0a3e 8d61 fabc d6d8 883e add2 b43e
000000c0: 628f 4f3e 9cc4 28be ef44 893e 6117 443f
000000d0: a46f 7b3e dbba 3e3e bd75 903e 3fd8 913e
000000e0: 2c04 f7bf 5147 14be d07f 823e b68a ed3d
000000f0: 8013 cc40 63a1 be3d 9006 00bc 314f e43d
00000100: ee69 1cbe 3a62 8dbd 68f1 71bd 4446 27be
00000110: 2ede e33d 8f98 febd 5e95 2ebd 016a cbbd
00000120: 9404 553d f3e8 31be 02c6 8cbd 8397 5abd
00000130: 1638 ec3d 2257 04bd 91c5 113e dca1 02bd
00000140: 5635 a73d 1424 ab3d 4f3d 6fbd 450e 9fbd
00000150: 8ec3 d03d 4026 e9bd e88c 033e e7f0 ac3d
00000160: 521a a83c 290c 17be 5570 60bc 2c4a 8f3d
00000170: 7914 bebc 9b37 163e 5852 873c 8090 7fbd
00000180: 98f8 163f c7c4 fd3e d847 1ebe 5132 ad3e
00000190: 66eb e2bf 0f9a 033f bd60 c5be eea0 b93d
000001a0: 803b 103c e55a 9dbf 79d4 f93e cb4a b43e
000001b0: 633e 853d f599 ff3d 583b 0b3f d5b4 a63e
000001c0: b252 1d3d 6875 dbbc 8c18 3e3e b610 573f
000001d0: d884 b63e 83ca dd3d 6586 053e 443c b23e
000001e0: e292 05c0 af3f c0be 2f0a 223e 913e 1839
000001f0: ee4a cb40 87ce 563e 96f7 f63d 801d b9bb
00000200: 6883 393f 7b16 d43e bc29 b6bd cdae 023f
00000210: 7040 f1bf 9f68 f03e 807d b9be 04ef 593e
00000220: f7e0 173e 2526 91bf 747e da3e 0620 0b3f
00000230: d0a8 a5bd bc86 83bd 586f 203f 5f54 283e
00000240: 0083 373e bb45 e7bd 995d 673e 279f 293f
00000250: cfad 803e 895e e93d 65bb 703e effb bb3e
00000260: 4f44 f6bf f343 89be 8d11 b03e 7040 3f3e
00000270: 3e6a cb40 0c53 c83e fcdf 2b3d ceaf c83d
00000280: 574e 093e bd59 2cbe c69c 9e3d 90cb b23d
00000290: 6298 8bbd 6211 2abd 27fa 393c 5c69 173e
000002a0: 7414 543d 7704 02be c681 48be 860c cd3d
000002b0: 13c5 47bd 9504 39be ad82 22bd 5de0 82bc
000002c0: ca6f 8abd 248e 40bd 2c3d 973d 2957 eebd
000002d0: f3f2 edbd 2359 e43c 0903 b23c f096 21be
000002e0: 5b92 35be d990 623d 7791 293d 0dc5 29be
000002f0: 1df9 983d 0c71 163d 0694 9c3d fe80 83bd
00000300: f37c 07bf 5f6c a7be 20f9 a6bb 4569 7bbe
00000310: 6232 2f40 e322 62be 1a43 563f 3363 1d3d
00000320: beb4 f0bd 8ce0 c73f d036 49be 38cf bbbe
00000330: fce8 893e a630 183f 97a1 0abf b133 33be
00000340: e988 133f 2e77 7d3d e4ac 1abd 2d99 efbe
00000350: f040 61bd 58e9 e03e 1cc9 8d3d c11d 43be
00000360: 1556 4140 b683 4f3f b4f3 2abe 7b34 4b3e
00000370: 45ec bdc0 297d eabc 5105 dabd be25 993e
00000380: cc7d 47bd 74d4 233d 92ed a43d e5de ddbd
00000390: 82e3 09be d00a 3c3d ecdf 043d 65d2 01be
000003a0: f49a 6e3d f508 31be 82a6 993d be26 dc3d
000003b0: 3a66 9f3d 0e06 12be 75d6 efbd c0b3 74bb
000003c0: b8c0 343d 40b5 1bbe 326c 12be ebe0 03be
000003d0: 0c45 26be f809 17be 4279 bb3d 906c d33c
000003e0: b2e9 2cbe 805c 5ebb c8c4 063d 2031 b4bb
000003f0: 3a6d fabd aacf f23d 134c 26be 0562 253e

fc2.bias f4 [16]
-0.044572964 0.26565745 -0.16840358 0.47582853 0.34907916 0.117891625 -0.097117625 -0.168133
0.39137557 0.3812638 -0.10360369 0.3136229 0.42965767 0.2913029 0.11891515 0.27783734
00000000: 2492 36bd 4104 883e fd71 2cbe cc9f f33e
00000010: 81ba b23e 2a71 f13d 9be5 c6bd 0f2b 2cbe
00000020: 6162 c83e 0235 c33e 2c2e d4bd 2e93 a03e
00000030: 17fc db3e a725 953e c989 f33d b240 8e3e

out.weight f4 [1, 16]
-0.20577168 -0.3304604 0.13608205 -0.38604295 -0.48743668 0.16259912 1.214152 0.12646922
-0.62573445 -0.51943 0.0011898617 -0.47259292 -0.74171144 -0.85674137 0.106900394 -0.5315816
00000000: d0b5 52be 1b32 a9be 1859 0b3e 6ca7 c5be
00000010: 4d91 f9be 6280 263e 5569 9b3f 2681 013e
00000020: 2230 20bf 5df9 04bf 22f5 9b3a b3f7 f1be
00000030: cde0 3dbf 6753 5bbf 98ee da3d bb15 08bf
