diabetes_model.pth (torch, 6441 bytes, 5 tensors)

fc1.weight f4 [32, 8]
0.06697143 0.14994353 -0.082523346 -0.09792222 0.13666756 -0.31427163 -0.48024005 -0.5256655
0.08271335 0.2852193 -0.014285265 -0.13804758 -1.5718199 -0.05125667 -0.28436753 -0.19332139
-0.03637188 -0.2115177 -0.012602391 0.034854792 -0.033497304 0.06764691 -0.15072924 0.86989796
0.026410824 0.07665905 0.0099282665 -0.19840328 0.01739897 -0.03870225 -0.4850948 -0.28117833
0.016404798 0.029687162 -0.50279534 -0.0011914979 0.011603859 0.0018633071 -0.84246343 0.003985596
0.08989447 0.20279282 0.052435298 -0.16202725 0.11652855 -0.39634266 -0.50529957 -0.49879247
0.054858156 -0.024560537 0.32708028 0.04547882 0.09166104 -0.03145836 -0.40595433 -0.37388226
-0.00025093695 0.08395921 -0.21900798 -0.02468904 0.19139235 0.40647838 0.40399063 0.3940842
-0.05843752 -0.40458247 -0.5536013 -0.31063432 -0.05870906 -0.2113305 -0.22587255 0.06768248
-0.013506106 -0.03128573 -0.4483678 0.0005225129 -0.0012538556 -0.029061018 -0.7431863 0.023369629
-0.45945463 -0.101386815 -0.14644192 -0.22889274 0.44852883 -0.041083585 -0.25014362 -0.4725482
0.106332414 -0.17540303 -0.3104153 -0.22745149 -0.055887114 -0.1877221 -0.30753848 -0.440579
0.3056133 0.038065597 -0.2681955 -0.2744948 0.20226577 -0.35499707 -0.24461257 -0.32862276
-0.019883329 -0.11063473 0.0014755648 0.0040558297 -0.007951119 -0.04126376 -0.09192718 1.1050268
-0.34699744 0.1680732 -0.14151475 0.07097411 -8.371472e-05 -0.32306862 0.13291347 -0.27318874
7.512879e-05 -0.16284421 0.034459114 0.08089899 -0.106029406 0.13962059 -0.47582567 -0.45062804
0.13069257 0.13282304 0.2528774 0.09590139 0.4931168 -0.39147118 -0.1875093 -0.45141357
-0.16157818 0.019814966 -0.1901555 -0.2690469 -0.33388036 -0.08010953 -0.11687085 0.29274258
-0.15657823 0.060028374 -0.0077049043 -0.017369578 0.19078253 -0.30853137 -0.3376661 -0.43994287
0.06740548 -0.11623661 0.0291397 0.113872446 0.3181327 -0.13126753 -0.34903175 -0.45784968
0.27039114 0.27272728 0.50474113 0.40630394 0.51058346 0.4014761 0.9138412 0.90480393
0.031717394 0.42415684 0.2996487 0.32244062 -0.07145394 0.14047156 -0.09033106 -1.0336846
-0.027142162 -0.05386363 -0.002188323 -0.0049703396 0.01538975 -0.11286478 -0.1626606 1.1968085
-0.130902 -0.49811387 -0.24301493 -0.085964434 -0.14465982 0.22490433 -0.25449562 0.06826974
-0.10741701 0.34057134 -0.15992408 -0.39703283 0.29446593 0.64440745 0.42480063 0.77536815
0.09842497 -0.13080755 -0.047171175 0.12304911 -0.1785639 0.24898729 -0.14235233 0.08492637
-0.19314791 -0.3020335 0.025557585 -0.23945417 0.031350873 -0.24262477 -0.15152307 -0.3706987
-0.0073322905 0.015712386 0.011969002 0.0014903302 -0.0048436164 0.09419473 0.32921615 -1.3030354
0.19628213 -0.23948474 0.059836697 0.032698818 0.05747369 0.6259053 0.042099666 -1.0941536
-0.29031575 -0.3210116 -0.15552899 -0.096132964 -0.1719006 0.272249 0.21302465 -0.045333862
0.077229165 -0.27215004 0.058772437 0.034293823 0.04534197 -0.32085812 -0.03386121 -0.60549027
-0.048999228 0.3126908 -0.2365633 -0.02483542 -0.044363838 0.4679313 0.42059156 0.190577
00000000: 5128 893d cc8a 193e 0002 a9bd 728b c8bd
00000010: 95f2 0b3e 36e8 a0be 06e2 f5be 0492 06bf
00000020: 9e65 a93d 4408 923e be0c 6abc 585c 0dbe
00000030: 6531 c9bf 84f2 51bd 9f98 91be 0bf6 45be
00000040: aefa 14bd 1998 58be 427a 4ebc e6c3 0e3d
00000050: 7834 09bd 778a 8a3d c458 1abe a2b1 5e3f
00000060: 835b d83c 6cff 9c3d 2baa 223c 3b2a 4bbe
00000070: 4988 8e3c 4086 1ebd 585e f8be 9bf6 8fbe
00000080: 5b63 863c 7e32 f33c 32b7 00bf 092c 9cba
00000090: 1d1e 3e3c 363a f43a afab 57bf 9a99 823b
000000a0: 981a b83d eca8 4f3e 65c6 563d 79ea 25be
000000b0: 85a6 ee3d 6ded cabe 505b 01bf ba61 ffbe
000000c0: f2b2 603d 2e33 c9bc 1177 a73e 0048 3a3d
000000d0: c9b8 bb3d 7bda 00bd 3fd9 cfbe 7f6d bfbe
000000e0: 3090 83b9 cef2 ab3d a143 60be ab40 cabc
000000f0: 5bfc 433e ef1d d03e dcd7 ce3e 67c5 c93e
00000100: 2e5c 6fbd 6f25 cfbe d1b8 0dbf 760b 9fbe
00000110: e978 70bd 0667 58be 224b 67be 1d9d 8a3d
00000120: b748 5dbc 7725 00bd 7790 e5be 3ff9 083a
00000130: 6a58 a4ba 5f11 eebc 7541 3ebf aa71 bf3c
00000140: a33d ebbe e4a3 cfbd dff4 15be dc62 6abe
00000150: 92a5 e53e 4347 28bd d312 80be d6f1 f1be
00000160: cfc4 d93d da9c 33be c1ee 9ebe 0be9 68be
00000170: e3e9 64bd 393a 40be af75 9dbe 9293 e1be
00000180: 5979 9c3e acea 1b3d ec50 89be 958a 8cbe
00000190: c21e 4f3e 2dc2 b5be b87b 7abe 3e41 a8be
000001a0: 5de2 a2bc 7694 e2bd bd67 c13a c4e6 843b
000001b0: 6945 02bc 3004 29bd 5144 bcbd 8571 8d3f
000001c0: a6a9 b1be 621b 2c3e 3ee9 10be e05a 913d
000001d0: 0090 afb8 4069 a5be 781a 083e 65df 8bbe
000001e0: 768e 9d38 a2c0 26be 0025 0d3d 5fae a53d
000001f0: f225 d9bd b3f8 0e3e 6c9f f3be b8b8 e6be
00000200: 46d4 053e c302 083e 2679 813e f367 c43d
00000210: ce79 fc3e e96e c8be 7002 40be ae1f e7be
00000220: c074 25be ff52 a23c 20b8 42be 84c0 89be
00000230: 5ef2 aabe 7710 a4bd fc59 efbd 5be2 953e
00000240: 0b56 20be 50e0 753d 6c79 fcbb a54a 8ebc
00000250: 7f5c 433e d3f7 9dbe 92e2 acbe 3140 e1be
00000260: e20b 8a3d 760d eebd 61b6 ee3c f535 e93d
00000270: 4ae2 a23e ff6a 06be 4ab4 b2be 466b eabe
00000280: b570 8a3e e9a2 8b3e b736 013f 1207 d03e
00000290: 99b5 023f 468e cd3e 7ff1 693f 3ba1 673f
000002a0: 19ea 013d 162b d93e 8e6b 993e f016 a53e
000002b0: 7156 92bd c7d7 0f3e 7eff b8bd c74f 84bf
000002c0: 3d59 debc 1ca0 5cbd f869 0fbb 3bde a2bb
000002d0: 4a25 7c3c a625 e7bd 8090 26be 0531 993f
000002e0: 2d0b 06be c808 ffbe e8d8 78be 1f0e b0bd
000002f0: b421 14be 524d 663e 404d 82be 01d1 8b3d
00000300: 73fd dbbd 5e5f ae3e 23c3 23be e347 cbbe
00000310: 3dc4 963e e3f7 243f 787f d93e 877e 463f
00000320: 0893 c93d 6af2 05be 9036 41bd 2c01 fc3d
00000330: 74d9 36be 86f6 7e3e cfc4 11be e0ed ad3d
00000340: 91c8 45be 23a4 9abe 245e d13c 7933 75be
00000350: c669 003d a172 78be dd28 1bbe 38cc bdbe
00000360: b643 f0bb 43b7 803c a219 443c 2f57 c33a
00000370: 33b7 9ebb 2be9 c03d 058f a83e ddc9 a6bf
00000380: 2ffe 483e 7d3b 75be 5317 753d 32ef 053d
00000390: 8869 6b3d 543b 203f b370 2c3d 3a0d 8cbf
000003a0: 44a4 94be a25b a4be fe42 1fbe 5ce1 c4bd
000003b0: b606 30be 3964 8b3e 2223 5a3e 00b0 39bd
000003c0: 532a 9e3d 4057 8bbe 5ebb 703d ae77 0c3d
000003d0: 80b8 393d 8447 a4be 0db2 0abd 6901 1bbf
000003e0: 6ab3 48bd 0219 a03e a63d 72be a773 cbbc
000003f0: dbb6 35bd b194 ef3e c757 d73e 9e26 433e

fc1.bias f4 [32]
0.6739238 0.23508137 0.049289264 0.29262564 0.43310976 0.6388831 -0.13227402 -0.110777274
0.4674961 0.31689247 0.17965241 0.65365845 -0.3399514 -0.111549355 -0.29662478 0.80669713
0.11484427 -0.10621236 0.5815259 0.60252285 -0.408133 -0.08350234 -0.4961193 0.47454208
-0.09882279 -0.26942626 0.61051494 0.5002665 0.11930432 -0.2962507 0.6942504 -0.10373851
00000000: 4586 2c3f 2cb9 703e 8ae3 493d 07d3 953e
00000010: 90c0 dd3e d88d 233f d772 07be 32df e2bd
00000020: a65b ef3e bb3f a23e cdf6 373e 2956 273f
00000030: 1c0e aebe fd73 e4bd 34df 97be b483 4e3f
00000040: 7933 eb3d de85 d9bd e2de 143f f03e 1a3f
00000050: cff6 d0be 4603 abbd 5903 febe 2ef7 f23e
00000060: 9a63 cabd 3df2 89be b54a 1c3f 7711 003f
00000070: d355 f43d 2cae 97be 65ba 313f db74 d4bd

fc2.weight f4 [16, 32]
0.11320958 0.05828219 -0.13325664 -0.08132358 -0.03861847 0.04376392 0.15742789 0.075960405
-0.024012214 0.0038007305 0.035038322 -0.23213206 0.063088715 -0.020833423 -0.04038705 0.07564712
-0.11701194 0.028369786 -0.13121988 -0.10207546 0.00428653 -0.12322099 0.023483997 -0.1529757
-0.13400137 -0.11718099 -0.097833745 -0.22213492 0.12520717 0.09401171 -0.15285352 0.1287412
0.7434078 0.67405945 0.42634326 0.08140848 -0.58018506 0.34361744 -0.102571875 -0.10355117
0.38501856 1.0772572 0.1304791 0.41386747 -0.055122722 1.2320952 0.039025247 0.79879683
0.057619136 0.07397578 0.76311463 0.4564938 -0.46934363 0.4460866 -3.948502 0.4081889
0.0022417607 0.068842515 0.41640612 -0.6154064 0.9088447 0.027761817 0.19790962 0.1925215
0.8939373 0.45992762 0.42671692 0.14444028 -0.5029106 0.44634387 0.024111725 0.1394571
0.4556575 1.279628 0.3362736 0.33467138 -0.11835639 1.0316559 0.054735526 0.5686667
0.08304293 0.035329137 0.67826796 0.81660444 -0.35115606 0.29298148 -4.1000304 0.33632413
-0.18319231 -0.12926957 0.5873286 -0.70887285 0.9964429 -0.022349104 0.46308938 -0.042233255
-0.027474836 0.07098298 0.023425654 -0.123332046 -0.04251626 -0.03972876 0.16717397 0.15875162
0.13759713 0.025882393 -0.033458784 -0.10667247 -0.06354491 0.022816077 -0.04694891 -0.11128923
-0.10182733 -0.103043795 0.045262694 -0.11260738 -0.047593027 -0.116495386 -0.008212149 -0.17104478
0.0008004159 0.031150654 -0.044608653 0.17661382 0.14148603 0.0042752028 -0.16466492 -0.042646125
-0.42077494 -0.26873055 -0.039039075 0.14039043 0.93157274 -0.22218876 0.22248544 0.27023828
-0.3049527 -0.7744198 0.24469844 -0.21733563 0.0019616843 -0.86939937 -0.05781258 -0.44164747
-0.16693331 0.21217687 -0.29754043 -0.3611893 0.6352407 -0.4044275 4.712458 -0.055386644
0.49455705 0.1674063 -0.15559965 0.98771393 -0.9648025 0.07462786 0.08461825 0.30737633
0.67094505 0.6754665 0.5078522 -0.033918854 -0.50960326 0.39415535 0.22484963 0.13183433
0.6012542 1.1959058 0.29049304 0.1941133 0.013418586 1.1642274 0.049894214 0.58977747
0.13583708 0.23772971 0.54162997 0.45258048 -0.50097805 0.40871704 -3.96476 0.25341251
0.104714565 -0.15758683 0.39420217 -0.5480005 1.1141764 -0.10215855 0.41835982 0.0017982397
-0.18753247 -0.0013063337 -0.14284196 -0.14752838 -0.18953994 -0.08881746 -0.1232639 0.06826239
-0.043666154 -0.09262333 -0.017268538 0.14835383 -0.098425806 -0.040433966 0.13386185 0.099484496
-0.15893696 0.116403 0.119182356 -0.05175937 0.03281858 -0.003919906 -0.08289846 0.024193006
-0.20542951 -0.002025202 -0.0018084943 0.0032668144 0.12732075 -0.12416377 -0.17110622 0.047593847
-0.14037609 0.12072034 -0.11405592 -0.047297373 -0.020060102 0.077737555 -0.010390007 -0.0044355136
-0.11154909 0.05308716 -0.19893983 -0.1887054 -0.114771135 0.01652236 -0.11943527 -0.008298858
0.039277323 0.13804226 0.07043604 0.0574776 -0.056996267 0.0042590974 0.09505748 -0.15850131
-0.21089011 -0.14173052 0.11440251 0.08798305 -0.018313423 0.08532466 -0.20099956 0.08722463
00000000: 6dda e73d 4eb9 6e3d 6e74 08be fa8c a6bd
00000010: 672e 1ebd cc41 333d c734 213e 2191 9b3d
00000020: 43b5 c4bc ad15 793b 5884 0f3d 07b4 6dbe
00000030: a834 813d dbaa aabc e46c 25bd e1ec 9a3d
00000040: f5a3 efbd c167 e83c 815e 06be f00c d1bd
00000050: 0576 8c3b 495b fcbd 8361 c03c a9a5 1cbe
00000060: a837 09be 96fc efbd 0f5d c8bd 5677 63be
00000070: 4f36 003e 3689 c03d a285 1cbe bcd4 033e
00000080: f94f 3e3f 298f 2c3f aa49 da3e 7db9 a63d
00000090: 0287 14bf a0ee af3e 3411 d2bd a312 d4bd
000000a0: 2721 c53e 90e3 893f 509c 053e 70e6 d33e
000000b0: 5dc8 61bd 4cb5 9d3f f0d8 1f3d f37d 4c3f
000000c0: 0b02 6c3d 9d80 973d 7b5b 433f 8eb9 e93e
000000d0: cf4d f0be 7665 e43e 42b4 7cc0 23fe d03e
000000e0: 81ea 123b 4efd 8c3d 2f33 d53e 468b 1dbf
000000f0: 0caa 683f c06c e33c d2a8 4a3e 5b24 453e
00000100: 13d9 643f a27b eb3e a47a da3e 27e8 133e
00000110: c0be 00bf 2f87 e43e f485 c53c d8cd 0e3e
00000120: f14b e93e daca a33f 0e2c ac3e 0c5a ab3e
00000130: d664 f2bd 4d0d 843f 5c32 603d 2494 113f
00000140: 6912 aa3d 49b5 103d f8a2 2d3f fd0c 513f
00000150: baca b3be ab01 963e 7333 83c0 ad32 ac3e
00000160: c496 3bbe 3e5f 04be 2b5b 163f b178 35bf
00000170: e216 7f3f 7815 b7bc 0d1a ed3e c7fc 2cbd
00000180: e812 e1bc 865f 913d 28e7 bf3c 8395 fcbd
00000190: 8825 2ebd a0ba 22bd a72f 2b3e c98f 223e
000001a0: 43e6 0c3e 5007 d43c 140c 09bd 1977 dabd
000001b0: d523 82bd c8e8 ba3c 804d 40bd 9ceb e3bd
000001c0: d98a d0bd a008 d3bd 6065 393d b39e e6bd
000001d0: e8f0 42bd 2295 eebd 408c 06bc 5d26 2fbe
000001e0: 00d3 513a a82f ff3c 90b7 36bd 41da 343e
000001f0: b7e1 103e 0017 8c3b ec9d 28be b4ad 2ebd
00000200: d06f d7be 0d97 89be 70e7 1fbd 82c2 0f3e
00000210: 8d7b 6e3f 7385 63be 39d3 633e ac5c 8a3e
00000220: c322 9cbe 6040 46bf 3a92 7a3e 3b8d 5ebe
00000230: 9a8f 003b f590 5ebf e2cc 6cbd 9e1f e2be
00000240: 91f0 2abe e544 593e 3857 98be ceed b8be
00000250: 229f 223f 1f11 cfbe 75cc 9640 1bdd 62bd
00000260: 9536 fd3e 8f6c 2b3e 8455 1fbe d2da 7c3f
00000270: 4cfd 76bf 7ed6 983d 554c ad3d 6e60 9d3e
00000280: 0ec3 2b3f 5feb 2c3f 9a02 023f 7fee 0abd
00000290: 5c75 02bf bbce c93e fb3e 663e 94ff 063e
000002a0: cceb 193f 7113 993f 81bb 943e a3c5 463e
000002b0: a1d9 5b3c 6705 953f e05d 4c3d a8fb 163f
000002c0: e018 0b3e 6b6f 733e 43a8 0a3f a1b8 e73e
000002d0: 1940 00bf 5c43 d13e a1be 7dc0 49bf 813e
000002e0: 9774 d63d 715e 21be ded4 c93e c349 0cbf
000002f0: 559d 8e3f 8038 d1bd 4233 d63e e9b2 eb3a
00000300: 8308 40be 4939 abba 2a45 12be ae11 17be
00000310: c216 42be eee5 b5bd c971 fcbd 27cd 8b3d
00000320: 48db 32bd 4db1 bdbd c076 8dbc 11ea 173e
00000330: 7893 c9bd 169e 25bd 1513 093e 87be cb3d
00000340: 5fc0 22be b264 ee3d e115 f43d a201 54bd
00000350: c66c 063d 8e72 80bb abc6 a9bd 6930 c63c
00000360: 1d5c 52be 40b9 04bb 000b edba 0d18 563b
00000370: 5f60 023e 9349 febd 7836 2fbe c4f1 423d
00000380: c0be 0fbe 3a3c f73d 2696 e9bd e4ba 41bd
00000390: 1555 a4bc de34 9f3d d93a 2abc c957 91bb
000003a0: d973 e4bd ec71 593d e2b6 4bbe fd3b 41be
000003b0: 210d ebbd e659 873c 7b9a f4bd eff7 07bc
000003c0: 42e1 203d f35a 0d3e c540 903d a26d 6b3d
000003d0: eb74 69bd e68f 8b3b 7fad c23d 2b4e 22be
000003e0: 94f3 57be ce21 11be dd4b ea3d 7530 b43d
000003f0: 0806 96bc b2be ae3d d4d2 4dbe d4a2 b23d

fc2.bias f4 [16]
-0.15657282 0.27217478 0.2871419 -0.13829835 -0.0023625281 0.16452856 -0.17083885 -0.22885999
-0.08370557 0.08903748 0.012727032 0.35407063 -0.19440083 0.3452651 0.14008714 -0.18146962
00000000: a054 20be 7e5a 8b3e 4304 933e 159e 0dbe
00000010: a5d4 1abb 2d7a 283e 61f0 2ebe 465a 6abe
00000020: d36d abbd 4859 b63d 0b85 503c bf48 b53e
00000030: 0311 47be 96c6 b03e 0173 0f3e 2cd3 39be

out.weight f4 [1, 16]
0.18994395 -0.6401413 -0.7497394 -0.10873219 1.0265139 -0.5455251 -0.14379013 0.14594488
0.8866693 0.9706759 0.0998497 -0.63742274 -0.028278973 -0.48042008 -0.5996777 -0.16120842
00000000: ab80 423e 4de0 23bf ecee 3fbf fcae debd
00000010: cf64 833f 88a7 0bbf b83d 13be 9372 153e
00000020: c2fc 623f 377e 783f 007e cc3d 232e 23bf
00000030: 4ea9 e7bc 9ff9 f5be 7a84 19bf d213 25be
