diabetes_model.pth (torch, 6441 bytes, 5 tensors)

fc1.weight f4 [32, 8]
00000000: 3aea 2ebd af36 fdbd 42cb aa3d dc7b 2f3e
00000010: bf64 dbbd 042e 26be 80e4 593d 3c9d 07bf
00000020: f7b6 acbe 1fec 85be a0ce 863c 1d7e 803e
00000030: dca0 9bbe 47cf 98be 4c57 45be 804f 21be
00000040: b30f 1c3e 1105 973e 4f73 7abd a459 e03b
00000050: 5258 83bd af15 e1bd 2489 a7be fe70 a2be
00000060: c0d9 d5be 474c 413d 6b06 91be 19ac 8a3e
00000070: cb1f e23c ebed c8bd 1b4f 15be cbec bcbe
00000080: 7a39 7b3e cdc1 0abe 2617 87bd d746 863d
00000090: eef4 443d 2df7 91be 701c 66be e462 b8be
000000a0: 7951 da3a ba35 933b 2389 a93e c7cc 7b3e
000000b0: 658d ce3e 5f13 e63e a22b 323f 941c d63e
000000c0: 6057 07bc ff26 94be c6fd 523e 098c 14be
000000d0: b6f1 353e 07fd a3be c6f6 60be 5304 9bbe
000000e0: 4cc8 49be 5a65 033c 0396 543e bede ef3d
000000f0: 388a 01be 4f36 813d 9dce 11bf fe6e 803c
00000100: fa2f cc3d 4a06 663e 3236 333e cef3 a2bd
00000110: fb4f 0a3e 8283 bd3e e7ce b33e 0fc1 633f
00000120: 12d6 f4bc 8bec c1be b723 b23e bde8 023e
00000130: 3e88 0f3f fc42 f2bd f5c1 81bc 7d10 efbd
00000140: 45e1 78bc d560 e53d aaf0 6b3e f9d6 70bd
00000150: d8ad 9bbb 911c d73e a7aa 173f babb 123f
00000160: bb66 e63e 8380 b73a d206 c63e 9ec6 923e
00000170: 1de0 a0be f7b6 a43e 2759 a8bd aa47 16be
00000180: 9deb 8f3c 34cd a1bc 84a7 4fbd f65d 77be
00000190: ac39 17bc 03a9 ce3d a6f4 26bf d775 b539
000001a0: 96d4 1ebc 9303 cdbd 3d8b 61bd 7c05 afbb
000001b0: 45d6 1bbd dc59 2c3e 55ff e93d da6a 603f
000001c0: 7196 26bb 424a 643e 0c37 253e 9d58 5c3e
000001d0: 85e5 53be 6e5f cebe 2e83 843f a7b8 c5be
000001e0: ae3c 8a3e 0b11 903e d0ee 91bf 2103 92bf
000001f0: f809 243e 58b6 713f e119 6abf a67a 193f
00000200: 6ac9 e7bd d3bb 05be 231e 98be aedc 70be
00000210: 0dbe 58be 204a 40bd c0a9 423d 19f1 59be
00000220: f594 84bc 57b9 12be 42e9 ecbc 3df7 d43c
00000230: 7083 383f 0ce2 cabc 980b a0be ec55 a1bd
00000240: fa38 acbd b0ba 3637 6ae3 b4be 0b63 c2be
00000250: 39c1 f7bd 4256 103e 919d 47bf f532 b7bd
00000260: 3d8d 133d 520c b83d 4885 25be d793 99bd
00000270: dd76 d13c d9c5 9e3e 822f 383f 61fc abbf
00000280: ff50 7e3e ab67 893e a92e 5ebe 9183 bb3e
00000290: b9b7 903e 52d0 8fbe 4f02 773d 0d0d 1abd
000002a0: 49a5 c0bd 5060 0cbf 61ca bfbd bb53 64be
000002b0: b579 3cbd 34de 25bf 4bbb 923f b7bb 45be
000002c0: 654d 00be 5acd 61be cf9c 3a3e 17aa 01bf
000002d0: 0f7c be3d 3974 5abe fc3a 96be 2b34 89be
000002e0: 6695 11be 232d 233e eec1 e6be 0444 d6be
000002f0: 062b 003e 8c7b b13e 4c53 0c3f 1c6d 393f
00000300: 6e1c 5dbb c4b2 9fbd fb24 34be 33d0 983e
00000310: d0f8 843e 0fce a6be 374e a2be 3f48 a9be
00000320: a348 94bd 5426 2bbf 1770 d1bd 7768 bbbe
00000330: fb9b 8dbc d6a0 903e a76b 3fbe 12a0 10bd
00000340: ab31 1dbd f8f7 0d3e 0c83 95be dba6 bebe
00000350: ea45 afbc 8b6e 23bf a27e 15bf 099d 48be
00000360: 5154 c93e 279d 7fbe 447e 583e 4fcf 43be
00000370: e983 a4bc d148 9cbe 15cd 98be 4ba4 6fbe
00000380: 608e 81bc f0fe 1bbe 9d57 93be 1e9d 6dbe
00000390: 68fa 023d 5f1f acbc a983 38bf 4684 ccbd
000003a0: 0e7d 983e 78ba 84bc a0aa c2bd 01fa 653e
000003b0: 294c 323e c97e b93e 9b23 7d3f 8df7 fb3e
000003c0: 59e0 0e3e 5da3 1b3e 3211 5ebe 77bf 733d
000003d0: b840 e03a 248f ca3d 58a4 48bf 4218 233e
000003e0: 5690 2b3d 56f5 7d3d ad7e d8bb 3080 85ba
000003f0: 737b 803a 5a02 e53d 9e0b 243d 73ae c9bf
-0.042703845 -0.12363946 0.083395496 0.17137092 -0.10712575 -0.16228491 0.05319643 -0.52974296
-0.3373334 -0.2615671 0.016455948 0.25096217 -0.30396163 -0.2984564 -0.19271582 -0.15752983
0.15240364 0.29496053 -0.061145123 0.0068466235 -0.0641333 -0.10990464 -0.32721817 -0.3172683
-0.41767693 0.047191884 -0.2832521 0.27084425 0.02760305 -0.09811004 -0.14580958 -0.3689941
0.24533644 -0.13550492 -0.06596212 0.065564804 0.048085146 -0.28508893 -0.22471786 -0.36012948
0.0016656361 0.0044924887 0.3311244 0.24589835 0.4034225 0.44936654 0.6959783 0.41818678
-0.008260578 -0.28936002 0.2060462 -0.14506544 0.17767987 -0.32028982 -0.21969137 -0.30276737
-0.19705313 0.00801977 0.2076035 0.117124066 -0.12650383 0.06309187 -0.5695589 0.015677925
0.09970088 0.22463337 0.17501143 -0.07956658 0.13507073 0.37014395 0.3511879 0.8896646
-0.029887233 -0.3787578 0.34792873 0.12784095 0.56067264 -0.118291825 -0.015839556 -0.11673067
-0.015190427 0.1120011 0.23041025 -0.058798764 -0.0047509484 0.42013982 0.5924477 0.573177
0.45000252 0.0014000091 0.38677078 0.28667158 -0.31420985 0.3217084 -0.082201295 -0.14675775
0.017568404 -0.019751169 -0.050696865 -0.24156937 -0.009230059 0.1009083 -0.65217054 0.00034610808
-0.009694239 -0.10010447 -0.05506443 -0.00534123 -0.03804614 0.16831154 0.11425654 0.8766304
-0.002541926 0.22293952 0.1613428 0.21518178 -0.20693024 -0.40307182 1.0352533 -0.3861744
0.2699942 0.28138003 -1.1401005 -1.1407205 0.16019428 0.9441886 -0.9144574 0.5995277
-0.113177136 -0.1305993 -0.29710492 -0.23521683 -0.21166249 -0.04694569 0.047525167 -0.21283378
-0.01618431 -0.14328514 -0.02891982 0.025996799 0.7207556 -0.02476599 -0.31258845 -0.078777164
-0.08409305 1.0891512e-05 -0.35329753 -0.3796619 -0.12097401 0.14095405 -0.779748 -0.08945266
0.036023367 0.08986725 -0.16164124 -0.07498901 0.025569374 0.3101032 0.7194749 -1.3436395
0.24835585 0.26836905 -0.21697487 0.36623815 0.2826517 -0.28088623 0.060304936 -0.037610102
-0.09406526 -0.5483446 -0.093647726 -0.22297566 -0.046014506 -0.6479218 1.1463407 -0.19309889
-0.12529524 -0.22050992 0.1822388 -0.5065016 0.09301006 -0.21333398 -0.29341877 -0.26797614
-0.14217147 0.15935187 -0.45069832 -0.41848767 0.12516412 0.3466457 0.548146 0.7243211
-0.003373887 -0.07797769 -0.17592232 0.29846343 0.2597108 -0.32579085 -0.31700298 -0.33062932
-0.07240417 -0.6685536 -0.102264576 -0.36603138 -0.017286291 0.28247708 -0.1869341 -0.035308905
-0.038377445 0.13864124 -0.29201543 -0.37236676 -0.021395642 -0.6384055 -0.5839635 -0.19591154
0.3932214 -0.24962293 0.21141917 -0.1912205 -0.02008243 -0.30524305 -0.29843965 -0.23402517
-0.01581496 -0.1523397 -0.2877778 -0.23204467 0.031977087 -0.021011053 -0.720759 -0.09986167
0.2978291 -0.016202196 -0.095052004 0.2245865 0.17411865 0.36229542 0.98882455 0.49212304
0.1395277 0.15199037 -0.21686247 0.059508767 0.0017109131 0.09890583 -0.7837577 0.15927222
0.041885696 0.06200155 -0.006606898 -0.0010185298 0.0009802416 0.11182089 0.04005014 -1.5756363

fc1.bias f4 [32]
00000000: 0705 403f 1580 10be 5279 de3e b3c0 203f
00000010: 7932 0e3f a207 bfbe a7eb 87be 9f0d 213f
00000020: 9cdd cabe 2a3e 503e 53e8 a4be e4fa 1d3e
00000030: 0e45 e63e ffb0 e5be f498 e9bd 9ef8 403d
00000040: 1c14 c6bd 5814 de3d f644 2d3f 98b4 373e
00000050: f10e aebe 9295 8f3e 3556 1f3f b548 ccbe
00000060: 1f57 393f 2115 0e3f 41b4 1c3f 42e1 2c3f
00000070: fe39 2b3f 1d9d a0be 41f1 0f3f 290b 453e
0.7500767 -0.1411136 0.43451935 0.62794036 0.55545765 -0.3731051 -0.26546976 0.6291141
-0.396222 0.20336214 -0.322085 0.15427738 0.4497456 -0.448616 -0.114061266 0.0471121
-0.09671804 0.10843724 0.6768335 0.17939985 -0.33995774 0.280438 0.62240916 -0.3989922
0.7239856 0.5550099 0.61212546 0.67531216 0.66885364 -0.31369868 0.562275 0.19242539

fc2.weight f4 [16, 32]
00000000: eb7d 1d3f b808 513d c064 9e3e 55c9 bb3e
00000010: 66af 263e a3d4 a8be 85bd 9bbd 674e c73e
00000020: 60f1 c6be 04e7 7c3e 1393 80be 228f e23e
00000030: b0a8 4b3d 376c 7dbf a1a4 c23e 9813 b4bd
00000040: 302f 3bbd 1e8d fd3e bef4 653e f853 73bf
00000050: 6d42 403e 89dd a63e d963 963e 0e3a 06be
00000060: b0e2 583e e0e1 723f ef9b 093f e088 293f
00000070: 9213 363f fe75 1abe e958 49bd c5b5 e540
00000080: dbe4 84bd 1e24 cc3d e6be 79bd 620e 863d
00000090: a32b 083d ecc5 66bd 8caf 0abd b01f 1cbd
000000a0: 9786 0c3d 2b0d 883d 5d81 edbd 6857 a83d
000000b0: af4a 17bd ae5a 7a3d 9e02 9bbd 80a8 cabd
000000c0: 3066 52bc 560e 28be 35ff 20bc cec4 59be
000000d0: 8405 abbc 32c5 48be 00f4 ec3d 5285 de3d
000000e0: 0c96 053d 8b1f 353c 49a9 b8bd 98ef 46be
000000f0: 4ea2 56bd a52c 47be 41e5 473d 347b 243d
00000100: e0c7 93bd 60bf 693c 72ac ae3d f2b2 8c3d
00000110: 7a8a 6dbd cd66 24be 69ea 053e d4b6 12be
00000120: 1091 0bbe 9d19 003d cf6a 8c3b 3f31 16be
00000130: 7e66 23be 6d9f 24be 063a cfbd bf63 013e
00000140: 9a06 eb3d a141 0dbe f7cc efbd 8f5d e53c
00000150: c019 5dbb f2ee aa3c 8c68 103c a114 4dbd
00000160: fd53 5f3d 1e9d bf3d a4dd d33d eebe c03d
00000170: 615f 26be ce87 9fbd 41f1 11be 4ebb ab3c
00000180: 6d1c 66be 2a1f 903d a10a 4ebe d32c 41be
00000190: 9448 393e 0f65 043f 5d48 183e 38e6 d03d
000001a0: 316b 343f d31b 77be 56a4 ef3e 1036 84be
000001b0: 90c3 823e 77d6 9c3f 6713 cc3d a412 f93e
000001c0: 1c85 e0bd 1acb c8bd d472 983e 42d8 b73f
000001d0: c87a 18be a08f d63c fc8d 3abe 3bcf 043f
000001e0: 3dc4 8fbd 4102 cabe 6624 e93b 52bf 07be
000001f0: 9d43 e7bd e0ed 093f 46be bc3e 5082 b6c0
00000200: 3741 7f3e 22ad f93d ea70 e43c 0cdc 353c
00000210: be56 8fbb 757f cfbc 61f1 2ebe ed0f 5cbe
00000220: ed00 bbbd 1817 fd3d f558 8f3e 350f 1abe
00000230: da2a 0fbe b008 95bf e55f 853e d905 2e3d
00000240: 48a8 9abc a4f8 e13d 10f0 0b3e be05 abbf
00000250: 3806 b83d b19d a03e b900 adbd b5da af3c
00000260: 0e00 633e 74e5 09bd d748 753e 87c0 31bd
00000270: d7c0 2b3e a59f 353e 4c44 68bd 31c3 d540
00000280: 6951 3d3f 81a5 1cbe 25f2 f93e 7c9f b23e
00000290: c687 713e c30c b1bd 806e fa3c 6541 e83e
000002a0: 50c7 afbe 3231 843e 4629 26be b520 723e
000002b0: 35f9 833c bb1b 5bbf 1952 b83e 711a e4bd
000002c0: f075 e0bc 32a0 043f d3a3 033e 59c5 8fbf
000002d0: f385 373e eaac 0b3f 1b6c 013f e734 4cbe
000002e0: 9f72 b63e fad2 503f 023f 943e 4e63 0a3f
000002f0: 27ee 3d3f 33a0 4cbe 610c 3cbd 81fd e940
00000300: 2f72 1fbd 9f08 84bd e02b 2c3c a95a ee3d
00000310: 1382 b63d cf41 323d 547b 37bd 9162 aebd
00000320: a32f 3f3c 67bc 2ebe 5f16 66bc aaaa 88bd
00000330: a723 29be eccd 22bd 024f bcbd d43b 24be
00000340: 4fc1 1a3e 255c 20be 07ef 02be 1c0b 47bd
00000350: 89e5 4bbe e23b bbbd f030 fd3c f1b5 89bd
00000360: d993 e4bd 3372 99bd 2c41 7abc 0cd1 c4bd
00000370: 2e92 853d 72cb 11bd c318 1a3c 9459 bcbd
00000380: 3801 41bd 176f 113e a9ee e3bd ffeb 0cbe
00000390: ba81 10be 8494 8d3d d66c 92bd f698 a1bd
000003a0: 3c6e 99bd eab1 22be 903c 25be d823 123d
000003b0: 00de 2ebe 9140 83bd be20 d73d 84c1 713d
000003c0: 2ae9 ef3d 3add d33d 6468 97bd bd0e 163e
000003d0: 743b 80bd b95d 1abe a3ac 2d3e 7039 7f3c
000003e0: 8cd2 383d 183f af3c f2d3 13be a68a b23d
000003f0: 76b1 a23d 2013 b93c 3096 82bc 8d96 16be
0.6152026 0.051033705 0.3093624 0.36677042 0.16277847 -0.3297473 -0.07604507 0.38927004
-0.3885603 0.246975 -0.2511221 0.44249827 0.04972142 -0.9899325 0.38016227 -0.087928
-0.0456993 0.49521726 0.22456643 -0.9505 0.1877534 0.32590893 0.29373053 -0.13108084
0.21180224 0.9487591 0.5375356 0.6622448 0.7112361 -0.15084073 -0.049157057 7.1784387
-0.06488963 0.09967826 -0.06097307 0.06545712 0.03324474 -0.056341097 -0.03385882 -0.038116157
0.034308042 0.066431366 -0.1159694 0.082197964 -0.03693646 0.061121635 -0.075688586 -0.0989542
-0.012841746 -0.16411719 -0.009826471 -0.21266481 -0.020876653 -0.19606474 0.11569977 0.108652726
0.0326138 0.011054884 -0.090166636 -0.19427335 -0.05240088 -0.19450624 0.048802618 0.04015656
-0.072158575 0.014266819 0.08528985 0.068700686 -0.05799339 -0.1605484 0.13077702 -0.14327556
-0.13629556 0.031274427 0.0042851935 -0.14667223 -0.15957066 -0.16076441 -0.10118489 0.12635706
0.114758685 -0.13794567 -0.11709016 0.027998714 -0.0033737272 0.020865891 0.008813988 -0.0500685
0.054523457 0.093561396 0.10345009 0.09411417 -0.16247322 -0.077895746 -0.14252187 0.020963337
-0.22471781 0.07037194 -0.20121242 -0.18864755 0.18094093 0.51716703 0.14871354 0.10200161
0.7047606 -0.24131708 0.46805066 -0.25822496 0.25539827 1.225295 0.09964638 0.48647034
-0.109628886 -0.098043635 0.29775107 1.4362872 -0.14890587 0.026191533 -0.18218225 0.5187871
-0.07019851 -0.39454845 0.0071149347 -0.13256577 -0.11292193 0.53878593 0.36863917 -5.7034073
0.24927221 0.121912256 0.027885873 0.011099827 -0.004374354 -0.025329331 -0.17084266 -0.2149045
-0.09131036 0.123579204 0.27997556 -0.15044864 -0.1398119 -1.1643276 0.26049724 0.042486046
-0.01887907 0.110337526 0.13665795 -1.3361127 0.08985561 0.3137031 -0.084474035 0.021466592
0.2216799 -0.03366609 0.23953567 -0.0433965 0.16772781 0.17736681 -0.056705758 6.680077
0.7395235 -0.1529751 0.48817554 0.34887302 0.2358695 -0.08645012 0.030570269 0.45362392
-0.3433175 0.25818783 -0.16226682 0.23645289 0.016110042 -0.8558919 0.36000136 -0.11137856
-0.027399987 0.5180694 0.12855463 -1.1232101 0.17922191 0.5456072 0.5055558 -0.19942056
0.35634324 0.81571925 0.2895432 0.54057777 0.74191517 -0.19982986 -0.045910243 7.3121953
-0.038927253 -0.06446957 0.0105085075 0.11638386 0.089115284 0.04351979 -0.04479535 -0.08514894
0.011669072 -0.17064057 -0.01404342 -0.066731766 -0.16517507 -0.039747164 -0.09194757 -0.16038448
0.15112804 -0.1566015 -0.12786494 -0.04859458 -0.1991178 -0.09142281 0.030907124 -0.06724156
-0.11161012 -0.07492485 -0.015274327 -0.09610185 0.06522022 -0.03559441 0.009405318 -0.09196773
-0.047120303 0.14202534 -0.11129505 -0.137619 -0.14111987 0.06913093 -0.07149665 -0.07890503
-0.07491729 -0.15888181 -0.16136384 0.035678715 -0.17076874 -0.064087994 0.10504292 0.05902244
0.117143944 0.1034493 -0.07392958 0.1465406 -0.0626134 -0.15074815 0.16960387 0.015577659
0.04512267 0.02139239 -0.1443632 0.08717851 0.07944004 0.022592127 -0.015940756 -0.14705868

fc2.bias f4 [16]
00000000: 37cb 143f 84c0 e0bc 6dc7 bfbc f857 87be
00000010: 85b2 b93d 2781 a73e 71c7 acbd 9979 c6bd
00000020: f4d3 8bbc a7c5 f53e 7ee5 0e3e 4122 88bd
00000030: 32ae 103f e7c1 99be edaf 2ebe 062d fd3e
0.5812258 -0.027435549 -0.023410523 -0.26434302 0.09067253 0.32715723 -0.08436478 -0.09691162
-0.01706884 0.4800236 0.13954732 -0.066471584 0.565158 -0.30030748 -0.17059298 0.49448413

out.weight f4 [1, 16]
00000000: 54f1 e6be 5fac 843c e26a 4f3e 400d 5f3f
00000010: 5a74 57bf 91d9 26bf 2a63 5e3e 7255 5ebe
00000020: 7904 393e e135 b2be cf8e f83f d27b 27be
00000030: e38f 20bf 8694 1c3f 5b8a 533e b492 cfbe
-0.45105994 0.016195474 0.20255616 0.8712959 -0.84161913 -0.6517573 0.21717516 -0.21712282
0.18068112 -0.3480673 1.9418582 -0.16355827 -0.62719554 0.6116413 0.20658247 -0.40541613
