diabetes_model.pth (torch, 6441 bytes, 5 tensors)

fc1.weight f4 [32, 8]
000000 19 5a 1e be b1 06 87 bd ad 3c 90 be 3a ea 9d be
       -0.15464057 -0.06593073 -0.28171292 -0.30842763
000010 3b 0c 7b be e2 87 9d bf ef 65 65 3d ba df ac 3e
       -0.24516384 -1.2307093 0.056005415 0.3376444
000020 2d 4b 14 3e 17 ef c4 3d e1 cb 1e bc 38 bc eb bd
       0.14481802 0.09615915 -0.009692163 -0.11510509
000030 0f a7 ad be 5e 4c 1b 3e 79 28 ff 3c e2 a2 1d bf
       -0.33916518 0.1516585 0.031147229 -0.61576664
000040 24 03 ad be 3a 9e a3 be a8 79 97 bb 2d a2 9b 3e
       -0.3379146 -0.31956655 -0.004622657 0.30397168
000050 44 3f a4 3e fb b2 c1 3e 6e c2 6c be 12 a3 e6 bf
       0.32079518 0.37831864 -0.23121044 -1.8018515
000060 88 03 0b 3c 8a b9 6b bd aa 56 66 3e b9 ea 79 3e
       0.008484729 -0.05754999 0.22493997 0.24405946
000070 04 9e 00 3e 3f 80 ed 3d 3e c9 90 bd 0f 58 6e be
       0.12560278 0.115967266 -0.07069634 -0.23275779
000080 ee 6c 17 3f 6a 80 0d bf b5 bc 08 be 4e 3c 0b be
       0.5915059 -0.5527407 -0.13353236 -0.13597223
000090 7d 84 22 bf aa 0d 3f 3f da 6f 06 3e 9f 30 d7 3e
       -0.6348341 0.74630225 0.13128605 0.42029282
0000a0 19 ac 2d bc 09 e6 f6 bc 17 39 0d ba db db fa 3b
       -0.010600113 -0.030138986 -0.000538723 0.0076556033
0000b0 f5 62 e3 3b 11 28 17 bd 3b c1 cf 3f 56 3b a9 bc
       0.006939287 -0.036903445 1.6230844 -0.020658176
0000c0 19 f2 00 be f0 ba bd 3d 10 32 94 bc 7c c5 ad be
       -0.12592353 0.09264171 -0.018090278 -0.3393973
0000d0 3b 51 94 be 0d 1a 89 be 60 74 88 bd 6c 67 e3 3d
       -0.28968224 -0.26777688 -0.06662822 0.111037105
0000e0 37 8f b1 3e 63 f3 89 3e 4f 5a 74 be a9 2f f9 3c
       0.34679577 0.26943502 -0.23862575 0.030418234
0000f0 d0 95 73 3e 80 af 26 3f 61 2d a4 bf e5 de 80 be
       0.23787618 0.6511154 -1.2826349 -0.25170055
000100 88 a9 5a bd eb 20 bb 3e 4f 76 11 be 11 74 a3 bd
       -0.053384334 0.36548552 -0.14205287 -0.07981122
000110 09 0d 07 bd fb e7 c6 3f 72 98 de 3d db 20 fc 3d
       -0.032971416 1.5539545 0.108689204 0.12310954
000120 7e 5c cf 3d e9 29 bb 3e 08 97 24 be 94 a5 80 bd
       0.10125063 0.36555412 -0.16073239 -0.062815815
000130 00 32 a6 be 09 75 ea 3e 77 43 7c 3e 1d 11 08 c0
       -0.32460022 0.45792416 0.24635111 -2.1260445
000140 fb 0d b2 be d3 9f 8d be 36 52 4b 3e a0 00 75 3e
       -0.3477629 -0.27661 0.1985558 0.2392602
000150 97 1e 37 be cb 0a db bd b3 44 05 3e ba 61 d0 be
       -0.17882763 -0.10695418 0.13014488 -0.4069956
000160 0b f6 57 3d db d5 77 3d 57 c1 a0 bc 87 aa 86 3e
       0.05272488 0.060506683 -0.019623442 0.26301977
000170 2e f8 45 3e 78 a0 df 3e 9e 77 ae bf 3e 75 b5 3d
       0.19332954 0.43677115 -1.3630254 0.08860253
000180 58 72 73 be c1 90 4d be 02 87 1a bc 0e 05 c7 3d
       -0.23774087 -0.2007475 -0.009431602 0.09717761
000190 6a b9 11 be 18 4c af 3f 5a ae 50 bf 30 b7 ba 3e
       -0.14230886 1.3695097 -0.8151604 0.36467886
0001a0 22 be 2a bc 4c c0 28 3f f1 87 5c 3d c3 36 96 be
       -0.010421308 0.6591842 0.05384058 -0.29338655
0001b0 5d 4a 0d c0 02 a3 34 bf fd 19 be 3e 4a 4e c0 3e
       -2.2076638 -0.7056123 0.37129202 0.3755973
0001c0 0a 1d 64 bc 6b 84 e2 bd 06 05 75 3c 30 e0 bb 3c
       -0.013922939 -0.11060413 0.014954811 0.02293405
0001d0 d1 35 20 bb e3 56 e3 bd 44 7f d4 bd 04 b6 d1 3f
       -0.002444614 -0.11100557 -0.103758365 1.6383672
0001e0 28 bc 7e 3d 98 37 88 be f8 75 3b bd b8 47 08 3d
       0.06219116 -0.26604915 -0.0457668 0.03327152
0001f0 ac 33 ab bd 78 bf 6a bd 78 0f eb bd 58 49 24 bd
       -0.08359465 -0.057311505 -0.1147756 -0.04010901
000200 4e 4d c9 be 78 fe 0f 3e 4e 89 cf be e6 0f 96 be
       -0.3931679 0.14061916 -0.40534443 -0.29309005
000210 66 29 15 bd ef d3 79 bf 6c a5 1c bf f3 e5 2c 3f
       -0.036416434 -0.9758901 -0.61189914 0.67538375
000220 5f 26 bd bd 20 ac 72 bf a3 b0 04 3d ff da 7e be
       -0.09235834 -0.9479389 0.032395016 -0.24888228
000230 49 70 31 3e 2c 2b 2d bf 64 2b 97 3e af 41 a8 bd
       0.1732799 -0.67644 0.29525292 -0.08215653
000240 7e d1 e1 bd f8 d2 c5 bd 6f c3 21 be 68 2c ae bd
       -0.110262856 -0.0965938 -0.15797208 -0.085045636
000250 91 99 ad be 39 5c 9e 3e 45 7a 65 3e 57 c7 ba be
       -0.33906224 0.30929735 0.22409923 -0.3648021
000260 68 16 80 3d 50 d3 0b be e2 80 28 3e 09 73 3e 3e
       0.06254274 -0.13654828 0.16455415 0.1859857
000270 4b 6e 06 3e 32 91 e4 bd e7 69 ba be 2d cb 95 bc
       0.13128011 -0.11160506 -0.36408922 -0.018285358
000280 e8 68 4c 3e fe d9 3a be 3c 26 47 be 86 2f 2f 3e
       0.19961894 -0.1824722 -0.19448179 0.17107973
000290 ca c4 03 bf af 17 86 3e fa 42 f7 bd 27 7d 7e be
       -0.5147215 0.26189944 -0.12073322 -0.2485243
0002a0 39 d5 0c 3e dd 93 a9 3d 57 14 7f 3e 2f d2 23 3e
       0.13753213 0.08280156 0.24910103 0.15998147
0002b0 ac 63 51 3e e8 ba 14 bf 58 e1 73 bf 6a a9 95 be
       0.20448178 -0.58097696 -0.9526572 -0.29230815
0002c0 75 4b 91 3d 8f b4 9c bd b3 20 a8 3d 72 a6 42 3c
       0.070944704 -0.07651626 0.08209362 0.011880504
0002d0 04 df 96 3d 12 ca a7 bd 9b 7d b2 3d 1d 93 0d c0
       0.073667556 -0.08192839 0.087153636 -2.212104
0002e0 4e 60 d6 bd 22 9d 08 3e ed 00 78 3d 02 66 13 bf
       -0.104675874 0.13341191 0.060547758 -0.57577527
0002f0 2a aa d6 3e 59 4b 92 bf d0 99 33 bf 53 46 1b bf
       0.419267 -1.1429244 -0.70156574 -0.6065418
000300 ef 1f 00 be c9 08 5f be 38 51 98 bd 06 d2 2f 3e
       -0.12512182 -0.21780695 -0.07437366 0.17169961
000310 46 d3 9c be 4a 51 0e 3e 08 74 76 3d d6 bb 01 3e
       -0.3062994 0.13898197 0.06016925 0.1266931
000320 b8 2f 33 be 69 da 33 3e 53 2a f3 3d 98 3f e4 3d
       -0.17498672 0.17563786 0.11873307 0.11144942
000330 00 08 8e 3e 85 ce 13 3e 78 6d d2 bf 35 eb 7d be
       0.2774048 0.1443425 -1.6439657 -0.24796756
000340 37 50 ad bc c0 6e 12 bf 32 46 a1 3d cf d4 62 be
       -0.021156413 -0.5720024 0.07874717 -0.22151493
000350 3d 4d ab bc 20 9c 96 bf 41 e8 82 be 24 44 ff 3e
       -0.020910854 -1.1766396 -0.2556782 0.49856675
000360 b1 80 47 bd 70 c9 31 bd 94 71 b2 3d 8e 6a 08 3c
       -0.048706714 -0.043404996 0.087130696 0.008326186
000370 f8 9b ff 38 0f 2d 9a bc b1 1e da bf 2a 3a bc b9
       0.00012188399 -0.018820314 -1.7040616 -0.0003590149
000380 0c e9 e8 3d 98 b1 e5 3e a9 08 ec 3e a2 2a 7a 3e
       0.11372575 0.44862056 0.46100357 0.24430326
000390 48 4a 1e 3e cc ea a3 3f 1a de 0f bb 27 88 6c 3e
       0.15458024 1.2806029 -0.0021952451 0.23098813
0003a0 a2 73 99 bd 7c 10 6d bf 11 35 a1 be 2b 8b e1 be
       -0.07492758 -0.9260328 -0.314858 -0.4405149
0003b0 15 49 24 be 0e 7d a1 be 6a b7 1a 3e 54 33 a8 3e
       -0.16043504 -0.31540722 0.1510903 0.3285166
0003c0 09 65 dc 3d 7c f9 56 bd a7 f3 7b be 8b b1 e8 3d
       0.107614584 -0.05248402 -0.24604665 0.11361989
0003d0 73 cd e2 3e 37 b2 23 bf 3a 01 6e be 8d 7b f0 bd
       0.4429737 -0.6394381 -0.23242655 -0.117423154
0003e0 f2 f5 a5 be 38 7b f8 bd e1 e4 f3 3d 06 11 ac 3d
       -0.32414204 -0.12132877 0.119088896 0.084016845
0003f0 a3 24 f4 3e 9e 47 eb bf 8b dc 03 3f b3 df 93 3e
       0.47684202 -1.8381231 0.51508397 0.28881606

fc1.bias f4 [32]
000000 70 9d 10 3f 50 ca 5b be 6d a3 d3 3e 7b c2 2f bf
       0.5649023 -0.21463895 0.4133562 -0.6865613
000010 be 5e 0d be 0a 52 64 bf 68 d0 66 be 89 1a e2 bd
       -0.13805673 -0.8918768 -0.22540438 -0.110402174
000020 8e ff 04 bf 46 10 01 be 92 ff a4 be f3 bd eb 3e
       -0.51952446 -0.12603864 -0.32226235 0.46043357
000030 e0 3e 81 be 08 43 8c be 3d fe 46 bf e4 f1 cc bd
       -0.25243282 -0.2739489 -0.77731687 -0.100070745
000040 00 6f dc 3e a5 fe 3e 3f c0 4e 8b be 13 de b0 be
       0.43053436 0.74607307 -0.2720852 -0.3454443
000050 2a 8f 2c be 72 b8 d4 3e fe 9d 9a 3e e1 26 95 3e
       -0.16851488 0.4154697 0.30198663 0.29131225
000060 2d 1a b0 be 4c 4c 93 3e f8 aa dd 3e b4 f5 19 3f
       -0.3439497 0.28769147 0.432945 0.6014054
000070 94 b1 1f bf 81 0e 24 3f 92 0e c2 be 09 8b 04 3e
       -0.6238034 0.6408463 -0.3790174 0.12943663

fc2.weight f4 [16, 32]
000000 a4 97 55 3e aa 8e 8a 3e 99 0d 4b 3f a9 f2 4d 3d
       0.20858628 0.2706197 0.79317623 0.050280247
000010 ec 78 6b 3f a8 c0 3b 41 a2 3d d9 3d a0 c8 d9 be
       0.9198139 11.734535 0.10607459 -0.42535877
000020 d4 da a9 3e 3c 4b c8 bf e4 0e 80 bd 50 63 e8 3e
       0.33174765 -1.564796 -0.0625284 0.4538827
000030 dd b1 ee bf 9d a8 62 bf ce 0c cc 40 30 7f ff 3c
       -1.864803 -0.88538533 6.376563 0.031188577
000040 af 23 23 3f 8b db 2d bf 36 87 46 bd 44 c3 66 3d
       0.63726324 -0.6791312 -0.04846879 0.056338564
000050 9e d9 a8 3e 88 83 eb 3e 8e d5 91 c0 ed 5d 84 bd
       0.3297853 0.45998788 -4.5573187 -0.064632274
000060 5e 00 10 be 10 06 89 3f f4 b3 df 3e 22 75 b5 c0
       -0.1406264 1.0704975 0.4369198 -5.6705484
000070 22 10 9a 3e d1 bf 08 bf 33 e6 e8 be 3d 68 85 bf
       0.30090433 -0.5341769 -0.45488128 -1.0422436
000080 90 68 1a be 0b 23 19 3e 4c 4e 85 3c 2b 11 08 be
       -0.1507895 0.14954774 0.016272686 -0.13287799
000090 a7 d2 d5 bd 4e b1 fb bd e0 f0 8f bb 28 c9 03 bd
       -0.10440569 -0.122896776 -0.004392728 -0.03217426
0000a0 22 2b 9d bd f5 49 98 bd 44 9e 78 3d c1 9e 0d bc
       -0.076742426 -0.07435981 0.06069781 -0.008643807
0000b0 fb 8a a4 bd 90 60 78 bc 40 58 fe bd 3b a7 33 3e
       -0.08034321 -0.015159741 -0.12419176 0.17544262
0000c0 1b cd dc bc 39 18 84 3d b1 00 2a be 4d 19 f4 bd
       -0.02695327 0.064499326 -0.16601826 -0.11918888
0000d0 32 5e b8 3d 00 e6 34 be a0 0f 12 3e 02 a5 9c bd
       0.09002341 -0.17665863 0.14263773 -0.0764866
0000e0 96 0b cb 3d f8 f0 15 be 2a 45 83 3d 18 7d fb bc
       0.09914319 -0.14642704 0.064096764 -0.030699298
0000f0 53 08 27 bd f4 34 40 bd e3 fc 04 3e d5 cc b5 bd
       -0.040779423 -0.0469255 0.12987094 -0.08876959
000100 3e 3b fe 3e 9a 48 37 3e 28 70 21 bf 50 b7 5d 3d
       0.49654573 0.17898789 -0.6306176 0.0541299
000110 b2 a3 b4 3e 97 38 24 c1 2b fa 02 3e 2d f2 8b 3f
       0.3528114 -10.263816 0.12790744 1.0933281
000120 90 44 df be 56 f4 9d 40 c9 ad d8 3c 38 1d 1e 3e
       -0.43606997 4.936076 0.026450055 0.15440834
000130 0c 79 e4 3f 9d 3c 2b 3f 91 f7 b8 c0 00 33 4a bb
       1.784944 0.66889364 -5.7802205 -0.0030853152
000140 34 9c ee 3e 98 d0 5b 3f c1 55 07 3e ab 23 19 3d
       0.4660355 0.85865164 0.13216306 0.03738753
000150 fe d8 61 3e d0 95 81 3e 11 e9 92 41 b5 26 37 3f
       0.22055432 0.2530961 18.363802 0.7154344
000160 b8 7b 80 bc 9d 13 c4 bd 85 6b ad bd a6 7e a7 41
       -0.015683994 -0.095740534 -0.08467773 20.93684
000170 9f 31 d3 be 22 5e 9e 3f e4 63 8b 3d 1e 64 03 3e
       -0.41248795 1.2372477 0.06806162 0.1283116
000180 30 00 00 3f 19 a9 a1 3e a0 18 f8 be 62 07 d4 bd
       0.50000286 0.31574324 -0.48456287 -0.10352971
000190 ea b1 bd 3e 03 6c 25 c1 b5 ca 8f bd 24 ee a4 3f
       0.370498 -10.33887 -0.07021085 1.2885175
0001a0 0f f4 ac be 01 dc 96 40 54 ba 06 3e 65 5c 2b bd
       -0.33779952 4.714356 0.13157016 -0.04183616
0001b0 ae 9d fe 3f 07 99 37 3f d3 c3 b9 c0 b0 1a 33 bc
       1.989187 0.71717876 -5.8051543 -0.010931656
0001c0 1f ff 61 3e c9 77 4d 3f 5c 6b f6 3d 18 f1 1a 3e
       0.22069977 0.802609 0.12032196 0.15131032
0001d0 a9 67 b2 3d 74 e6 7c 3e 55 2f 94 41 71 02 10 3f
       0.08711178 0.24697286 18.523111 0.56253725
0001e0 10 77 44 bd 65 05 b7 bd c4 02 17 3d d8 c6 a7 41
       -0.04796511 -0.08936576 0.036867872 20.972092
0001f0 41 d4 da be 44 32 71 3f 91 05 2d 3e 41 18 27 3e
       -0.42740062 0.94217324 0.16896655 0.16317846
000200 b2 1d f1 3d 69 2d 81 bb ca a8 06 be ba 3f 5b be
       0.11773242 -0.003942181 -0.13150325 -0.21411029
000210 0e 39 a0 3d cb 16 1d bc 1d c4 20 3e 10 46 fc bd
       0.07823382 -0.009587954 0.15699811 -0.12318051
000220 35 96 05 be dc 45 5b 3b b8 29 13 bd 66 7d 48 be
       -0.1304558 0.0033458387 -0.035928458 -0.19579086
000230 a5 0b 28 3e 5e 3b 19 bc 81 15 15 3c ae 09 ed bd
       0.16410692 -0.009352533 0.009099365 -0.11574112
000240 51 3d 69 be a5 3a 06 be 10 e7 f3 bc 72 53 5a bd
       -0.22777297 -0.13108309 -0.029773265 -0.053302236
000250 80 c3 8c 3a e3 a8 ee 3c d6 6f ef 3c e9 62 56 bd
       0.0010739416 0.029133266 0.029228132 -0.05234042
000260 00 2a 1a 3d b0 22 5f be 0e 10 15 3d 03 22 49 bd
       0.03763771 -0.21790576 0.036392264 -0.0491047
000270 46 63 68 3d 87 62 94 bd 89 60 7f 3d 09 47 de ba
       0.0567353 -0.07245355 0.062347922 -0.0016958426
000280 54 ed 09 3f ce 27 25 3e 3c 11 39 bf 1a ed a3 bd
       0.5387776 0.16128466 -0.7229192 -0.08004208
000290 e2 a9 7a 3e 05 71 23 c1 49 c5 14 3e e5 60 8a 3f
       0.24478868 -10.215093 0.14528383 1.081082
0002a0 47 80 8f be 9f 65 98 40 ee 75 63 3c 2c 0a 65 bb
       -0.28027555 4.762405 0.013883097 -0.003494869
0002b0 85 de ed 3f c2 e2 1a 3f 49 cd b6 c0 8e ce 84 bd
       1.8583533 0.60502255 -5.712559 -0.0648471
0002c0 42 a1 ee 3e 2b b2 2d 3f f4 bf 8c bd eb ab 27 be
       0.46607405 0.6784999 -0.0687255 -0.16374175
0002d0 b6 b7 8c 3e 9c 0f 95 3e 01 e0 93 41 11 ca f5 3e
       0.2748391 0.29113472 18.484377 0.48005727
0002e0 0d f7 0c 3e 2d 31 35 3e 1b 72 6c be fd ec a7 41
       0.13766117 0.1769454 -0.23090403 20.990717
0002f0 33 df 02 bf 61 22 89 3f 72 47 cc 3d cc d0 a1 3e
       -0.51121825 1.0713617 0.099745646 0.31604612
000300 e7 12 d3 3e aa 19 48 3c 89 b6 e2 bc e8 50 51 bd
       0.4122536 0.01221315 -0.02767493 -0.05110255
000310 97 ca 60 bd ac cc 66 41 46 29 ab 3d f5 fc 50 bf
       -0.054880705 14.424969 0.08357482 -0.8163598
000320 a9 f9 25 3e 48 25 97 bf b2 56 d1 bd 59 5a bb bd
       0.16208519 -1.1808252 -0.10221614 -0.09148092
000330 fe 7f 02 bf 86 49 c4 bf 5b c0 e0 40 58 df ba bc
       -0.5097655 -1.5334938 7.023481 -0.022811577
000340 6f d0 27 3f 21 3f f6 be a9 77 c9 bc 34 4d 02 be
       0.6555242 -0.4809504 -0.024593191 -0.12724763
000350 f3 7a 43 3e 9f 6a 9e be 61 7b 60 c0 ce a6 41 bf
       0.1908987 -0.3094072 -3.5075305 -0.7564515
000360 c5 de 0a be 76 55 00 bf ac 7a 7b bf c9 2e 53 c0
       -0.13561542 -0.50130403 -0.9823406 -3.2997305
000370 d0 87 8f be 8e 71 87 be f2 9f 14 3f 44 3c 35 bf
       -0.28033304 -0.26453823 0.5805656 -0.70795083
000380 c6 71 ac 3e 35 f7 07 3e 24 cd e1 3e c0 62 09 be
       0.33680552 0.13277896 0.44101822 -0.13416576
000390 bb 4b 34 bd 8f fc 60 41 bd 81 22 3e 88 a7 fa be
       -0.044017535 14.06166 0.15869804 -0.4895594
0003a0 2c e6 15 3f 5c d8 69 bf f3 d4 03 3e 92 00 f8 be
       0.5855434 -0.91345763 0.12874202 -0.48437935
0003b0 5e 42 8a bd 2f ea 3c 3e 94 54 01 41 ca 43 fc 3d
       -0.0675094 0.18448709 8.083149 0.12317617
0003c0 77 68 a2 3d 8c 53 af be c1 e3 0b be 9e df b5 3c
       0.07930081 -0.3424343 -0.136611 0.022201356
0003d0 38 c0 8d 3e f9 b6 1b 3f 7c 74 64 c0 9a e9 6d 3e
       0.27685714 0.6082607 -3.5696096 0.23233643
0003e0 c8 4a fe bd 5f 6c 9b 3e e8 2d 5a bf 7a de 21 c0
       -0.12416607 0.30356118 -0.852263 -2.529204
0003f0 e7 bb cc 3c 77 e6 cd 3d 1f c2 46 3d 3e d3 99 3c
       0.024991943 0.10053723 0.048524972 0.018777486

fc2.bias f4 [16]
000000 bc 6e 5a be f3 16 0c be a3 e4 21 3f 28 4c 1c 3f
       -0.21331304 -0.1368063 0.63239497 0.61053705
000010 bc e5 16 be d3 81 0b 3f 3d b5 4c be 00 8f 09 bf
       -0.14736074 0.5449497 -0.19991012 -0.53733826
000020 8d 4a c9 be 30 69 08 bf 51 bc 76 bd e5 4a ca bd
       -0.3931469 -0.53285503 -0.060238186 -0.09877566
000030 d1 fd c4 3e 5a 3c 26 be 7d 44 0e be 5f ad f4 3e
       0.38474897 -0.1623396 -0.13893314 0.47788522

out.weight f4 [1, 16]
000000 bc 68 59 3f a9 3c d2 3d b7 b5 dc be 9f dc 21 bf
       0.84925437 0.10265476 -0.43107387 -0.63227266
000010 9c 6f 75 3d 75 15 04 bf 75 f9 25 40 ce d2 f3 40
       0.059920892 -0.5159524 2.5933506 7.619483
000020 69 42 12 41 e8 57 8d 3f 8b 66 05 3d 85 22 9b 3f
       9.141213 1.1042452 0.032568496 1.211991
000030 56 60 1b bf ee d9 6f 3e a1 28 e2 3b 9f f8 20 bf
       -0.6069387 0.23422977 0.006901816 -0.62879366
